data.pth (torch, 9559 bytes, 6 tensors)

l1.weight f4 [8, 106]
000000 30 45 ba be 5b b7 19 3f 6d 59 a4 3e df 7a c6 3e
       -0.3638091 0.60045403 0.32099476 0.38765618
000010 17 37 77 3e ae 0c dd 3c 08 01 46 3f 6c 26 ec bd
       0.24142109 0.026983585 0.77345324 -0.11530766
000020 42 4b 26 3f 85 9a 1b 3f bb 86 4b 3e fd 1f 5f be
       0.64958584 0.60782653 0.19875614 -0.21789546
000030 cb 78 1b bf e3 dd 01 3e 21 14 26 3f 36 f4 32 bd
       -0.6073119 0.126823 0.64874464 -0.04368993
000040 35 3f 54 3f 69 aa 3f 3f 00 0d 05 3f b6 ec f4 be
       0.82908946 0.748694 0.5197296 -0.47836846
000050 a2 08 27 bf b8 a3 4c 3f d2 d4 3c be 35 f3 2f bf
       -0.6524755 0.79937315 -0.1844056 -0.6873048
000060 e1 6f f9 3e 95 37 cf 3e 5b ce 24 3f ef b1 e2 3e
       0.4871817 0.40472093 0.64377373 0.44276378
000070 b6 a0 f0 3e b4 68 2a 3f 02 a1 6e be 25 98 36 3f
       0.46997613 0.66566014 -0.23303607 0.71325904
000080 0b 5a ee 3e 88 06 98 be 23 dc 9b 3f 80 19 83 be
       0.46553072 -0.29692483 1.2176555 -0.25605392
000090 4b 37 ed bd 4c 55 94 be d1 2f 7f be 98 c4 98 be
       -0.11582812 -0.28971326 -0.24920584 -0.2983749
0000a0 66 28 58 3e 62 9a 85 be 49 3b 9c 3e b2 af ea 3e
       0.21109161 -0.26094347 0.3051398 0.4583717
0000b0 f8 c3 5a 3f e4 82 23 3f e4 22 4b 3f fc e7 04 3f
       0.85455275 0.638716 0.79350114 0.5191648
0000c0 a7 c6 5b 3f a4 e2 52 3f 7e e0 78 3e 06 d0 52 3f
       0.85849994 0.82377076 0.24304387 0.8234867
0000d0 b3 fa d4 3e 23 20 03 3e 73 e1 15 3f 3d 9c 80 3e
       0.41597518 0.12805228 0.58547133 0.251192
0000e0 6a 3c 83 3e be ef 4d 3d c2 d9 f5 be 92 9c d2 3e
       0.2563203 0.050277464 -0.480177 0.4113508
0000f0 a8 a1 19 bf 11 72 93 3f 21 05 c7 3e 74 27 f6 be
       -0.6001229 1.1519185 0.388711 -0.48076975
000100 89 e5 20 3c ca 4d 48 3e 7c dd b0 3e 19 fe 98 be
       0.00982035 0.19560924 0.3454398 -0.2988136
000110 aa b6 0f 3e 5e 3e 5d bd 5c d0 4e 3f 51 6c 19 bf
       0.14034525 -0.054014556 0.8078668 -0.599309
000120 7e f5 a2 be ae 17 ce 3e 75 19 03 3f 5f 99 1e 3f
       -0.3182792 0.4025244 0.5121072 0.61952776
000130 ec 38 2f bf a2 50 87 be 4b f9 b3 3e d3 23 11 3f
       -0.6844623 -0.26428705 0.35151133 0.5669529
000140 dc 27 aa 3e 4a 55 06 3f ee 9e 31 3e ce 72 fa 3d
       0.33233535 0.5247389 0.17345783 0.122289285
000150 ce e7 fd be c4 3e 29 be 1e 8f 42 bf 2f f1 57 be
       -0.49590915 -0.1652785 -0.7599963 -0.21088098
000160 ee 83 28 be e0 c1 09 3f 09 dc c7 3e bd f1 5f bd
       -0.16456577 0.53811455 0.3903506 -0.0546739
000170 f3 7f 86 3f 42 fd 6e 3f 3b 7f 1e bf 47 86 63 3f
       1.0507797 0.9335519 -0.6191289 0.88876766
000180 a9 90 ca 3e 29 d1 0a 3e f8 41 15 3f 3c ac 44 3f
       0.39563492 0.13556351 0.58303785 0.7682531
000190 0e 14 52 3f cc e8 4d bf 73 01 f8 3b 94 0c 31 be
       0.8206185 -0.80433345 0.007568532 -0.17289954
0001a0 7d 0a 4c bd 1a b8 4c 3f 63 76 bd be 44 3e 9a 3e
       -0.04981469 0.79968417 -0.37004384 0.3012563
0001b0 4d 30 0c 3e 68 bf 07 3e 67 e7 21 3e 60 f4 3e 3e
       0.136903 0.1325661 0.15810929 0.18647909
0001c0 57 0c fb be f0 30 8e 3d af e0 d9 be b6 dd 52 bf
       -0.49032852 0.06942928 -0.42554232 -0.82369554
0001d0 eb e9 1b bf f2 71 9a 3e ce 6a 4e 3f 3c 7b 88 3f
       -0.60903805 0.30165058 0.8063172 1.0662608
0001e0 73 5a 98 bf d3 d4 57 3f 84 3a 0f 3f 50 9a 2e 3f
       -1.1902603 0.8430912 0.5594866 0.6820421
0001f0 f2 cb 82 be cf 81 37 3e ab 94 3b 3f 3c 0f 37 3f
       -0.25546223 0.17920612 0.73273724 0.7150762
000200 54 98 8b 3f 09 8d b8 be 6b ed df bb 9c 2a 43 3f
       1.0905862 -0.360451 -0.0068337223 0.7623689
000210 f6 ea ca 3e af d8 60 3f ed ff e8 be bb 77 0f 3e
       0.39632386 0.8783063 -0.45507756 0.14010517
000220 09 6c 5d 3f 2b be 30 3f 01 2c 09 3f 98 f0 57 3f
       0.86492974 0.69040173 0.5358277 0.8435149
000230 14 31 94 bf e7 f7 d2 bd 21 64 ef be 83 81 37 bf
       -1.1577477 -0.1030119 -0.4675608 -0.71681994
000240 8d f9 5a 3f 1b a5 87 3f fd d7 7a 3e 98 f6 81 3f
       0.85537034 1.0597261 0.24496455 1.015338
000250 0d 83 7f bf ba 2f 02 bf f8 91 10 3f 45 d3 1f 3f
       -0.9980934 -0.50854075 0.5647273 0.62431747
000260 d0 b4 67 bf af b0 66 3e 36 6c 50 bf f3 e6 52 bf
       -0.9051027 0.22528337 -0.81415117 -0.8238365
000270 ee 45 1d 3f dd 05 73 bf 17 9b 33 bf 79 a6 b0 3e
       0.6143483 -0.9493082 -0.70158523 0.3450201
000280 9f 93 53 be e0 1e 03 3f 58 78 f1 3e a7 6b fa 3d
       -0.20661782 0.51218987 0.47162127 0.12227564
000290 77 8f f3 be d3 b0 0d 3f 7b 28 b3 3f 05 d6 b3 3f
       -0.47570392 0.5534794 1.3996729 1.4049689
0002a0 f0 8b 57 3e db bc fb bc d5 d6 ac 3f e7 73 97 3f
       0.21049476 -0.030729702 1.3503062 1.1832246
0002b0 9c c5 a3 3e 65 8a 42 3f 19 67 23 bd 52 cf 9f be
       0.319867 0.75992423 -0.039893243 -0.3121286
0002c0 c3 1c 3f bf a2 ad b6 3e a2 95 78 3f 81 50 46 bf
       -0.7465326 0.35679346 0.9710332 -0.7746659
0002d0 6a 86 cd be a6 fe 88 be 6b 4c 89 3e 36 70 4d 3e
       -0.40141612 -0.2675678 0.26816115 0.20062336
0002e0 5b 6b 5b 3f 17 a2 d3 3e 60 69 14 3f fc 70 bc 3e
       0.85710686 0.41334602 0.5797329 0.3680495
0002f0 b8 65 b7 be d2 0d b5 be 5d 44 77 bf fe b3 8d 3f
       -0.35819793 -0.35362107 -0.9658869 1.1070554
000300 67 3f 91 be 53 21 1f bf 2c 38 2a 3f c2 4c d9 be
       -0.28368685 -0.62160224 0.6649196 -0.42441374
000310 61 9b 60 be 88 db d4 3c 32 ea 65 be 8a a6 44 bf
       -0.21934272 0.025983587 -0.2245262 -0.7681662
000320 bb 9b 48 3f ff 2c 9b 3e 94 a1 f9 3d be f9 48 3e
       0.78362626 0.30307767 0.12189022 0.19626519
000330 a7 d1 cc be 19 92 20 bf a4 3b 16 bd 25 24 8d be
       -0.40003702 -0.6272293 -0.03667797 -0.2756664
000340 12 3e 51 bf d4 fc af 3e 95 83 fb bd d4 8d af be
       -0.81735337 0.3437258 -0.12280957 -0.34287894
000350 06 ab 4d 3f 53 80 6f be a4 3d e0 3e b4 b4 fd 3e
       0.80339086 -0.23388796 0.43797028 0.49551928
000360 b7 80 6e 3d 8f 11 51 bf b2 bd 6f bf 07 14 c2 3e
       0.05822822 -0.8166742 -0.9364883 0.37905905
000370 db 5b 93 be 66 8b a4 be 91 3e 23 be d2 a9 d0 be
       -0.28781018 -0.32137603 -0.15941836 -0.40754563
000380 91 98 5a 3f 58 b4 93 3f a8 87 af bd 91 f5 2b bf
       0.8538905 1.1539412 -0.08570796 -0.6717158
000390 b2 e6 19 bf 98 74 4d 3e d6 67 d4 3e fa 9d fc 3e
       -0.6011764 0.20064008 0.4148547 0.49339277
0003a0 f8 ab 1a bf 3d 3d c9 3d fd 3c 7f 3f a6 2e 4a 3f
       -0.60418653 0.098261334 0.99702436 0.7897743
0003b0 05 d8 4d 3f fb ab 06 3f 32 40 22 be 3a e6 5a be
       0.80407745 0.5260617 -0.15844801 -0.21376887
0003c0 12 d7 a8 be c5 7f 08 3f ca 49 0d bf 5c b0 9b 3e
       -0.32976586 0.5331996 -0.5519072 0.3040799
0003d0 50 06 41 3f ad e3 19 bf bc 57 4c 3f dc 41 d1 3f
       0.7540026 -0.6011303 0.7982137 1.6348224
0003e0 f5 31 08 bf 1b f0 19 bf 7f 47 0e 3f 10 f2 19 bf
       -0.5320123 -0.60131997 0.55577844 -0.60134983
0003f0 64 f2 3e bf 98 e0 19 bf f5 4c 2b be 25 98 8b be
       -0.7458861 -0.6010833 -0.16728576 -0.27264515

l1.bias f4 [8]
000000 d7 3f ab 3f 83 b8 76 3f 2f e9 19 3f 24 f7 21 3f
       1.3378857 0.9637529 0.60121435 0.6326773
000010 eb 23 94 3f d7 25 5a 3f 42 20 47 3f 2f 7c c1 3f
       1.1573461 0.8521399 0.77783597 1.5116023

l2.weight f4 [8, 8]
000000 e1 c2 08 40 40 61 04 bc 8d d7 9e bf cd 27 b0 bf
       2.1368945 -0.008079827 -1.2409531 -1.3762146
000010 a2 7a 92 3f b3 69 af 3f d2 47 d2 bf 08 5d 5f 3e
       1.1443675 1.3704132 -1.6428168 0.21812832
000020 e8 17 95 3f 1c 28 05 3f 34 f5 40 3f 50 d2 22 bf
       1.1647921 0.5201433 0.7537415 -0.6360216
000030 5e 63 af bf 34 94 d9 3f a3 1f 0a 40 94 d3 bb 3f
       -1.37022 1.6998353 2.158181 1.4673944
000040 ae 51 46 3f 25 91 c6 3f db 25 10 40 fc 0f 7e 3f
       0.77468383 1.5513045 2.2523105 0.9924314
000050 3e e0 2c 3f d3 c0 c8 3f a3 d8 9a 3e 30 96 b7 bf
       0.67529666 1.5683845 0.30243406 -1.4342709
000060 27 d7 ea 3f 9c 6f 00 c0 b1 14 41 bf 32 c2 6d 3f
       1.8346909 -2.006812 -0.754222 0.92874444
000070 69 2e 36 3f 67 a1 dc 3f 2f f3 cc 3f b0 5e 9e bd
       0.71164566 1.7236756 1.6011714 -0.07732904
000080 7e c4 02 3f ed c3 a8 bf 62 30 09 40 08 bd 71 bf
       0.51081073 -1.3184792 2.143578 -0.94429064
000090 e0 68 d3 3f 77 9b 2e bf 11 a2 d8 3f 0b 4c 2e 40
       1.651638 -0.6820597 1.6924459 2.7233913
0000a0 76 48 34 3f e8 ad 02 40 c4 e4 cb bf bb 18 06 40
       0.70423067 2.0418644 -1.5929189 2.0952594
0000b0 3f a7 78 be a4 89 c0 bc f3 8c 8f 3e b2 cd 8a 3f
       -0.2428255 -0.023503132 0.28037223 1.0844023
0000c0 69 bb 7f 3f f1 55 02 40 5a 02 59 be 7b 22 d1 3f
       0.9989534 2.0364954 -0.21192303 1.6338648
0000d0 4d 06 6e bf 78 47 b0 3f a3 bf e5 be 2d a4 e6 bd
       -0.92978364 1.377181 -0.4487277 -0.11261783
0000e0 04 de a1 3e a1 cd ba 3f 77 41 a9 be c2 e1 a0 bf
       0.31614697 1.4594003 -0.33057758 -1.2568896
0000f0 a5 50 fe 3f b5 9d 10 be 1f 42 da be 35 6e 06 3f
       1.9868361 -0.1412266 -0.4262857 0.5251191

l2.bias f4 [8]
000000 c3 e6 8f 3f a0 4c 46 3e e5 8e 43 bf 50 f7 38 3e
       1.1242298 0.19365168 -0.76389915 0.18063092
000010 4a 6d 1a 3f 00 7e 9c 3f 58 1b 37 3f 02 d1 84 3f
       0.6032301 1.2225952 0.715261 1.0376284

l3.weight f4 [48, 8]
000000 7f e9 b0 bf 7f 03 14 3e 74 d6 d2 3e 48 df 52 bf
       -1.3821257 0.14454459 0.4117924 -0.8237195
000010 8c 2e 3a bf 1a 01 c1 bf 2e 1c b5 3e 49 f4 08 be
       -0.72727275 -1.5078461 0.35373062 -0.13374437
000020 20 56 b9 bf 60 a7 64 be 5a 71 4f bf 98 2b f6 bf
       -1.4479408 -0.22329473 -0.81032336 -1.9232054
000030 19 ad 88 3e cd ec 2c be 8c 7a 94 be ea 79 b6 3e
       0.26694563 -0.16887207 -0.28999746 0.35639888
000040 71 83 7d be ec ff 02 c0 65 90 22 be eb 6c 3c 3d
       -0.24757172 -2.0468702 -0.15875395 0.04600231
000050 46 f6 80 bf 70 45 14 3f dc 27 a4 3d 77 91 5d bc
       -1.0075157 0.57918453 0.08015415 -0.013523451
000060 2e 02 92 3e 0e c9 23 c0 59 ba 54 bf 18 12 dd 3e
       0.28517288 -2.5591464 -0.83096844 0.43177867
000070 57 a2 24 be 38 c4 a0 3e 39 9a 1f bf 28 01 a1 3c
       -0.16077553 0.31399703 -0.623447 0.019653872
000080 45 35 c4 3e ab 89 0a c0 50 45 f5 bd f2 f0 80 bf
       0.3832189 -2.1646526 -0.11976111 -1.0073531
000090 21 14 d0 be e7 44 83 be c0 df 21 be d4 af a7 3e
       -0.40640357 -0.25638506 -0.1580801 0.32751334
0000a0 0e 8d 67 bf d1 f7 17 c0 11 c2 e2 bc 94 95 90 bf
       -0.9044961 -2.3745005 -0.027680429 -1.1295648
0000b0 94 01 84 3e de a8 73 3e 89 8b ea be 56 55 71 bd
       0.25782454 0.23794886 -0.45809582 -0.058919273
0000c0 1c 8c 80 3e 55 0f 1e c0 08 3e c4 be e2 0b 19 3c
       0.25106895 -2.4696858 -0.38328576 0.009341212
0000d0 30 bf b4 3d ae c6 dd be 63 52 f1 bf b9 a4 bf 3e
       0.088255286 -0.43315643 -1.8853267 0.3743036
0000e0 85 43 fc 3d 75 e9 cf bf f4 48 3e bf 32 2f 86 be
       0.12317566 -1.624312 -0.7433007 -0.26207882
0000f0 bc c5 0a 3f 4f 6f 14 c0 7d e9 cc bf bd c3 8b 3e
       0.5420797 -2.3192937 -1.6008755 0.27297774
000100 80 09 52 bf f3 77 f4 bf 9f 93 5e be 50 c0 a8 bf
       -0.82045746 -1.9099106 -0.21736 -1.3183689
000110 01 30 ea 3e 28 ef 00 bf d3 1e 1a c0 50 6b ba 3e
       0.4573975 -0.50364923 -2.4081314 0.36409998
000120 04 22 06 bf f6 95 04 c0 fc ba bd 3d 92 54 e4 bf
       -0.52395654 -2.071653 0.0926418 -1.7838309
000130 60 28 a9 bf 79 50 c1 3e 6c b4 8a 3e f4 c1 eb 3e
       -1.3215446 0.37756708 0.27090776 0.46046412
000140 dc 90 18 be c8 ef dd 3e 23 43 1e bf 6d 3f 98 3e
       -0.1489901 0.43347 -0.6182119 0.2973589
000150 81 af ed be a6 f1 74 be f0 02 07 bf 8d a2 ac be
       -0.4642296 -0.23920307 -0.5273886 -0.33717766
000160 f2 52 05 c0 80 a4 25 3f 17 8a 3c c0 c1 39 25 bf
       -2.0831876 0.6470413 -2.9459283 -0.6454125
000170 af d8 bc bd 72 b1 a2 3e a7 02 82 3e cf 3b 59 be
       -0.092210166 0.31776005 0.2539265 -0.21214221
000180 e4 24 f1 be 8a ce 85 bf 24 72 6c bd d1 2f 18 3e
       -0.47098458 -1.0453656 -0.05772604 0.1486199
000190 9c 16 27 3d b8 6b 38 bf eb 9f 10 bf 0d db a8 3d
       0.040793046 -0.72039366 -0.56494015 0.082449056
0001a0 31 89 27 3d 60 be 34 be 9c 38 88 3d 1a 38 c7 3d
       0.04090232 -0.17650747 0.066514224 0.097274974
0001b0 d0 ff 66 be e6 c7 20 c0 5e 0c f7 be f0 1b ce be
       -0.22558522 -2.5122008 -0.48251623 -0.4025569
0001c0 c9 b0 a2 bf 14 c6 5a bc c9 a9 e6 bd 40 af 07 c0
       -1.27102 -0.01335289 -0.11262853 -2.1200714
0001d0 dc 98 07 3f f7 01 08 c0 31 38 bd bf 78 bb bb be
       0.5296762 -2.12512 -1.4782773 -0.36666465
0001e0 d7 ac b8 be 20 19 16 3e 32 ac e8 bf 19 6e 47 3f
       -0.36069366 0.14658022 -1.817755 0.7790237
0001f0 75 20 2d bf b9 2a 1a 3f 03 65 a1 3e 62 d0 f6 bf
       -0.6762765 0.6022144 0.31522378 -1.9282343
000200 2f 8a ef bf 18 8a ce bf 1a 2f f6 3e e7 16 51 bf
       -1.8714045 -1.6135893 0.4808281 -0.8167557
000210 de 29 0c 3d 3d d9 8f bf 1d c9 45 bf 12 0f 0e 3e
       0.034219615 -1.1238171 -0.7726 0.13872936
000220 09 0d 9f bf 96 fd 8d 3e b4 77 8b 3e 2c 9a 58 3d
       -1.2425853 0.27732533 0.27239764 0.052881405
000230 86 e9 29 3e bb e0 00 c0 b4 5f ed bf c7 68 0e c0
       0.16592988 -2.0137165 -1.8544831 -2.225145
000240 be c2 49 be 9c f6 c6 be 41 2b 5c 3e 9f f9 07 be
       -0.19703194 -0.38860023 0.21500875 -0.13278817
000250 ed ce cb bf f1 90 e2 bd b5 ac a2 3e d0 ee 91 be
       -1.5922524 -0.11062802 0.3177239 -0.28502512
000260 48 0c be 3e f4 fe 7b bf ed 38 30 3e 07 92 cd 3d
       0.37118745 -0.984359 0.17209215 0.10037618
000270 cd 3e 56 bf ff 5d e4 be b7 a2 bf be 99 eb d5 bd
       -0.83689576 -0.44602963 -0.3742883 -0.10445327
000280 20 3b f8 be f5 f6 5d be a4 94 98 3e 45 3a 6f 3e
       -0.4848261 -0.21676238 0.29800904 0.23362072
000290 8a 23 3c bf 69 83 df be db b1 a4 be 56 6a f6 be
       -0.7349173 -0.43654945 -0.32166943 -0.48128003
0002a0 3e 2e 47 be 6a 64 a4 bf 2b 6c db 3e db dd d7 bc
       -0.19451234 -1.2843144 0.42855963 -0.026350906
0002b0 7b 7b c9 be 01 d9 11 c0 52 a1 4a be b7 89 8a bd
       -0.3935202 -2.2788699 -0.19788101 -0.06764548
0002c0 84 06 c3 be be 58 34 bf 03 c9 e6 bd 31 98 57 bf
       -0.3809091 -0.7044791 -0.11268809 -0.842166
0002d0 3b 72 88 be fc 21 7c be d3 c4 72 3e b1 7c d7 b9
       -0.2664965 -0.24622339 0.23707895 -0.00041100898
0002e0 cb aa 05 c0 c1 c4 3a 3f 60 01 93 bf 90 9e 57 bf
       -2.0885494 0.7295647 -1.1484795 -0.8422632
0002f0 81 bb a5 3e 39 ad 86 bf 5a 84 de bf d9 87 f0 be
       0.32369617 -1.0521613 -1.738414 -0.46978644
000300 cf ee 6c bf c8 7f 07 3f 3d 0d 44 c0 76 db a0 3e
       -0.92551893 0.52929354 -3.063308 0.31417435
000310 2f d4 d1 3e f5 c8 2e bf 1c fb 06 c0 d3 7a a8 bf
       0.40982196 -0.68275386 -2.1090765 -1.3162483
000320 75 ed 14 bf ed 80 cc be b7 10 e9 3e ad e8 a5 3e
       -0.5817483 -0.39942113 0.45520565 0.3240408
000330 91 dc ef be 5b 1c db bf b3 3c 25 3d f8 ae 84 bf
       -0.46847966 -1.7118028 0.04034109 -1.0365896
000340 b1 97 b1 bf dd c5 47 3e ca 85 a7 bf 3d fa c9 3e
       -1.3874418 0.19509073 -1.3087704 0.3944873
000350 b6 b2 36 3e bb 5d 10 3e 25 6a 09 bf 30 90 16 c0
       0.1784161 0.14098255 -0.5367759 -2.3525505
000360 fe 5a 28 3d 1f 3c 20 bf 5f bb 2a c0 20 a9 a0 be
       0.041102402 -0.6259174 -2.6676862 -0.31379032
000370 bc bc 3f 3f da 17 60 bf 6c 61 00 c0 f9 64 d2 3e
       0.7489736 -0.87536395 -2.0059462 0.4109266
000380 0e a8 0d bf fb 66 55 3e 7c 38 0b bf 2d 56 4e 3e
       -0.55334556 0.20840065 -0.54383063 0.20150061
000390 f9 48 89 3d 78 b6 b9 bf cc 89 e3 bf 00 ad 92 3e
       0.067033716 -1.450881 -1.7776427 0.28647614
0003a0 a8 9e 0f c0 aa df 4a 3c 0f b6 25 3d 58 31 c8 3e
       -2.2440586 0.012382427 0.040456828 0.39100146
0003b0 ef 33 54 bc 1b 48 37 bf 32 05 9b be 22 b9 6d bf
       -0.012951835 -0.715944 -0.302774 -0.92860615
0003c0 ed fb 15 c0 66 3b cb bf 22 2b aa 3e ad 0f 9a bf
       -2.3435013 -1.5877502 0.33236033 -1.2036034
0003d0 59 f1 1f bf e1 ed aa 3e 11 82 07 3e d1 3c b0 3e
       -0.6247764 0.33384612 0.1323321 0.344214
0003e0 e9 11 76 bf 42 47 9f bf b0 d9 84 3e 02 af 2b be
       -0.9612108 -1.2443621 0.25947332 -0.16765979
0003f0 ea 76 2b c0 ad 19 c6 3e 7f fb ed 3e 10 18 8d 3d
       -2.679133 0.38691464 0.4648094 0.06889355

l3.bias f4 [48]
000000 88 12 d7 be 84 44 78 3e d2 39 c8 3e 20 60 97 be
       -0.42006326 0.24244887 0.39106613 -0.29565525
000010 ac 25 93 bd ee a4 2e 3d 51 7b 41 be a5 0a 0a bf
       -0.0718492 0.042637758 -0.18894698 -0.5392249
000020 02 b3 bd be 2d 53 a3 be 1e 52 62 be c4 4d 71 3e
       -0.37050635 -0.31899396 -0.22101638 0.23564821
000030 0d 89 e0 be 32 8a 7a be 0a d0 70 3e 23 d0 a5 3e
       -0.4385456 -0.2446678 0.2351686 0.32385358
000040 cb 5b 46 3e 52 16 bd be 15 ca 20 bf de 7d 07 bf
       0.19370954 -0.36931092 -0.6280835 -0.52926433
000050 ca b0 14 bf 04 93 7d bd 31 80 71 be 2e 44 fd bd
       -0.5808226 -0.061907783 -0.23584057 -0.1236652
000060 02 b6 e0 3d 3f f1 a7 be b1 9a f4 be aa c5 d7 3e
       0.10972215 -0.32801244 -0.4777427 0.42142993
000070 fb 1f 27 bf b3 25 b2 be 16 47 24 bd 2c 4c db bd
       -0.65283173 -0.34794387 -0.040106855 -0.10707888
000080 1b 2b c4 be d5 ae 84 be e1 c7 9e be fd 9a cf 3c
       -0.38314137 -0.25914636 -0.3101187 0.025342459
000090 97 f8 c2 3e 82 c6 9d be e6 ca f5 3e 71 7c 99 3e
       0.38080284 -0.30815512 0.48006362 0.29977754
0000a0 61 41 44 be 21 d8 60 3d 63 3c 49 3e da bd e5 bd
       -0.19165565 0.054893617 0.19651942 -0.11217852
0000b0 3b 8a 16 3e bb ac 8c 3e 52 54 16 3e 74 f6 bc be
       0.14701168 0.27475533 0.14680603 -0.3690678
